databoost/envs/antmaze/data/policy/antmaze_expert_policy_state_dict.pt (torch_old, 311568 bytes, 8 tensors)

fc0.weight f4 [256, 29]
0	0x3c756bba	0.014979297
1	0xbe3bc464	-0.18336636
2	0x403a9024	2.9150476
3	0xbed01496	-0.40640706
4	0x3e3e5692	0.18587711
5	0x3fdfb453	1.7476906
6	0xbfb392ac	-1.4029136
7	0xbf06f882	-0.5272294
8	0x3f857553	1.042643
9	0xbf1d7f7e	-0.6152266
10	0x3f0cf097	0.5505461
11	0x3d9faa68	0.07796174
12	0x3e7b15ad	0.24519987
13	0xbdf1e3a9	-0.11811001
14	0xbe0b8db5	-0.13628276
15	0xbe98e8e0	-0.2986517
16	0x3cb3ac3a	0.02193271
17	0xbdfe806a	-0.12426837
18	0x3de01d9b	0.10943147
19	0x3d68282b	0.056678932
20	0x3b8e1b96	0.0043367846
21	0x3dbfbe85	0.093625106
22	0x3d4e803d	0.050415266
23	0x3e393a6f	0.18088697
24	0xbe2fa5bb	-0.17153065
25	0x3d50a86f	0.05094188
26	0x3d55c2c6	0.052187704
27	0xbda5964a	-0.08085306
28	0x3ebe9feb	0.37231383
29	0xbfad0b85	-1.351914
30	0x3df64a74	0.120259196
31	0x3db549fb	0.08852001
32	0xc003371f	-2.0502393
33	0x3edc5d3b	0.4303988
34	0xbe239b6e	-0.1597726
35	0x3e279fe6	0.1636959
36	0x3d4847a9	0.048896465
37	0xbd7dbe2c	-0.06194894
38	0x3d921a8e	0.07133971
39	0xbe894008	-0.26806664
40	0x3e92dafa	0.2868269
41	0x3f89f833	1.0778869
42	0x3ba29a26	0.0049622236
43	0xbdfcdbed	-0.12346635
44	0x3d27dbbd	0.040981043
45	0xbe229c54	-0.15879947
46	0xbe525439	-0.20539941
47	0x3e218146	0.1577197
48	0x3b9c5e22	0.0047719637
49	0xbd3d603b	-0.04623435
50	0x3d6f460c	0.05841641
51	0xbe67fc5f	-0.22654866
52	0xbca12d3c	-0.01967489
53	0xbc999219	-0.018746423
54	0x3d9980b0	0.07495248
55	0x3e436692	0.19082096
56	0x3cd89d03	0.026442057
57	0xbdd49faf	-0.1038202
58	0x4015fe91	2.3436625
59	0xbf731547	-0.9495434
60	0x4046ad2c	3.1043196
61	0x408d29a6	4.411334
62	0x3fa792f9	1.3091727
63	0x3f7ddb88	0.99163103
64	0x3f70c56b	0.94051236
65	0xbf37d7b0	-0.7181349
66	0x3efeb525	0.49747577
67	0xbf0dfa48	-0.55460024
68	0x3e627d21	0.22118045
69	0x3f38cb77	0.7218546
70	0xbe889bb4	-0.26681292
71	0x3c5d71cd	0.013515902
72	0xbe01d1bd	-0.12677665
73	0x3e511afd	0.20420451
74	0x3e2e2cb3	0.17009239
75	0x3ea5fa10	0.32417345
76	0x3e876890	0.26446962
77	0x3db9d93d	0.09074638
78	0x3bf054f2	0.007334345
79	0xbd5092e1	-0.050921325
80	0x3dcd588a	0.10026653
81	0x3d10373e	0.035208933
82	0x3c1fdc4d	0.009757114
83	0x3e03c156	0.1286672
84	0x3d6e7346	0.058215402
85	0x3df71087	0.12063699
86	0x3cf3bef2	0.029754136
87	0x3f7b212a	0.9809748
88	0xbff6e5d4	-1.9288888
89	0x407d85df	3.9612958
90	0xbf8e37f5	-1.1110827
91	0x401cb7d8	2.448721
92	0xbdf63d2e	-0.12023388
93	0x3c900cae	0.017584171
94	0x3eaf2012	0.34204155
95	0xbe2ba901	-0.16763689
96	0xbe7ba68c	-0.24575251
97	0x3e7d5377	0.2473887
98	0x3e17ef10	0.14837289
99	0xbd8af556	-0.06785075
100	0xbe3c2873	-0.18374805
101	0x3c27751f	0.010220795
102	0x3e913a90	0.28364992
103	0x3f00adf2	0.5026542
104	0xbde43222	-0.111423746
105	0x3f27fef9	0.6562343
106	0x3dac2f9b	0.084075175
107	0xbd9c613c	-0.076357335
108	0x3ca408be	0.0200237
109	0x3d99a19d	0.075015284
110	0x3d26b703	0.040701877
111	0x3d5b622b	0.053560417
112	0x3deab43b	0.114601575
113	0xbdd3931d	-0.10330794
114	0x3eaf0cd7	0.34189484
115	0xbe8daefc	-0.27672565
116	0xbf186b5a	-0.59538805
117	0xbf06a7cb	-0.5259978
118	0xc01219de	-2.2828288
119	0x40e3ad27	7.1148868
120	0xbf0ddc1c	-0.55413985
121	0x3f4c4b78	0.79802656
122	0x3e3a82ec	0.18214005
123	0x3eedac97	0.46420738
124	0x3f110642	0.56650174
125	0x3d300167	0.042970087
126	0x3c6cf075	0.014461626
127	0x3dab4027	0.083618455
128	0xbf25b50e	-0.6472939
129	0xbd3973fb	-0.045276623
130	0xbe33f7a2	-0.17574933
131	0xbe989f24	-0.29808915
132	0x3e8f3995	0.2797362
133	0x3e89fac8	0.26949143
134	0xbd35ab93	-0.04435308
135	0xbcd67a94	-0.026181497
136	0xbd96f123	-0.07370212
137	0x399b1650	0.00029580528
138	0x3dd65c9b	0.10466882
139	0x3ca514ea	0.020151574
140	0x3e34e035	0.17663653
141	0x3d267613	0.040639948
142	0x3d4fd78f	0.050742682
143	0xbe36a8a7	-0.17837773
144	0xbe2f3d23	-0.17113166
145	0x3ea3bfb0	0.31982183
146	0xbe699a2e	-0.22812721
147	0xc026b564	-2.6048212
148	0xbfdaed28	-1.7103624
149	0x403e061b	2.9691226
150	0xbc184692	-0.009294169
151	0xbd94aab1	-0.07259119
152	0xbd771af0	-0.060328424
153	0xbd2ad9d6	-0.04171165
154	0x3ea93a43	0.33052263
155	0x3e5ec8e2	0.21756318
156	0x3e910a87	0.28328344
157	0xbdba450e	-0.090952024
158	0x3e1b3353	0.15156297
159	0x3e606523	0.2191358
160	0x3e27fd4f	0.16405223
161	0xbd699d70	-0.05703491
162	0xbd1379ce	-0.036004834
163	0x3e8d1524	0.27555192
164	0x3d27ef4f	0.040999707
165	0x3c669a90	0.0140749365
166	0x3d56094c	0.05225496
167	0xbbeec920	-0.0072871596
168	0x3cad00df	0.02111858
169	0x3b0cd607	0.0021489875
170	0x3d3ee664	0.046606436
171	0xbcab168c	-0.020884775
172	0xbed7d3f0	-0.42153883
173	0xbe3caa2f	-0.18424295
174	0x3fb730ee	1.4311807
175	0xbf7c4d9c	-0.9855592
176	0x3f07187b	0.5277173
177	0x3ff18347	1.8868188
178	0x3fa771f7	1.3081654
179	0x3e156331	0.1458862
180	0x3f254128	0.64552546
181	0x3ffdaacd	1.9817749
182	0x3fa6145b	1.2974962
183	0x3f79dee8	0.9760575
184	0x3d1c2b11	0.03812701
185	0xbdf6247d	-0.12018678
186	0x3e4cc4d2	0.19996956
187	0xbcf84c68	-0.03030987
188	0xbcaa7cd9	-0.020811485
189	0x3c84ae22	0.016196314
190	0xbce06849	-0.027393477
191	0x3d9eaf01	0.07748223
192	0x3e5d7ec4	0.21630388
193	0x3c7c2c3a	0.015391404
194	0x3d492686	0.049109004
195	0x3ead33fd	0.33828726
196	0x3dee10c6	0.11624293
197	0x3db35be0	0.08757758
198	0x3c754770	0.014970645
199	0x3d448a36	0.04798337
200	0xbd0a96b0	-0.033835113
201	0x3e12ca15	0.143349
202	0x3eb7be0d	0.35887185
203	0x3fa01c17	1.2508572
204	0xbed5542c	-0.4166578
205	0x40220271	2.531399
206	0xc00af77f	-2.171356
207	0xbe8fce72	-0.28087193
208	0x3dcb7c86	0.0993586
209	0x3f3ad911	0.7298747
210	0xbfd3a48f	-1.6534594
211	0x3f9884be	1.191551
212	0x3dd06312	0.10175146
213	0xbecb00cd	-0.39649048
214	0x3eed3d5f	0.46335885
215	0xbef5941d	-0.47964564
216	0x3e0bdf3c	0.13659376
217	0xbe26ecf6	-0.16301331
218	0x3e0fecab	0.14055125
219	0x3e85b7b2	0.2611671
220	0xbe29ae05	-0.1657029
221	0x3dc23074	0.09481898
222	0xbcc3c304	-0.023896702
223	0x3e0eee65	0.13958128
224	0xbb57ac29	-0.0032909012
225	0x3e2e5a78	0.17026699
226	0x3c8b8722	0.01703221
227	0xbe3c32da	-0.18378773
228	0x3c09b69e	0.008405356
229	0xbe1dd6d4	-0.15413982
230	0xbdbdc06c	-0.09265217
231	0xbc64509f	-0.013935237
232	0xc064b3fb	-3.5734851
233	0x3f45c337	0.77251
234	0xbf925cf6	-1.143462
235	0xc036e816	-2.8579154
236	0x3eef2388	0.46706796
237	0xbe4fc1b5	-0.20288737
238	0x3ec332c8	0.3812468
239	0x3f31b501	0.69416815
240	0x3e891fdd	0.26782122
241	0xbd66c1aa	-0.056337036
242	0xbf60437a	-0.8760296
243	0xbe967cc9	-0.2939208
244	0xbe946cd9	-0.28989294
245	0xbdb775f9	-0.089580484
246	0x3dc2dcd5	0.095147766
247	0xbe1a0d66	-0.15044174
248	0xbd84d596	-0.06486051
249	0x3ce4e607	0.027941717
250	0x3c561f4d	0.013068986
251	0x3c03eaf0	0.008051619
252	0xbc14cde8	-0.009082295
253	0xbd6e182a	-0.058128513
254	0xbca3b06f	-0.019981591
255	0x3d71ef6c	0.05906622

fc0.bias f4 [256]
0	0xbd5ba9d1	-0.053628746
1	0xbbafc5cc	-0.0053641554
2	0xbfbb6abb	-1.4641947
3	0xbfcb3968	-1.5876894
4	0x3e87a4b2	0.2649284
5	0xbe24edf2	-0.16106394
6	0xbf1af57b	-0.60530823
7	0xbf0e1a50	-0.555089
8	0x3f4bab67	0.79558414
9	0xbf03f493	-0.51545066
10	0xbec37471	-0.38174775
11	0x3ede1c32	0.43380886
12	0xbd1572b3	-0.03648634
13	0x3c9e8948	0.01935257
14	0xbff547e6	-1.9162567
15	0xbecb35d0	-0.39689493
16	0xbf4476a2	-0.7674352
17	0xbf666be5	-0.90008384
18	0xbef7cdab	-0.483991
19	0x3f8c6a49	1.0969936
20	0x3f473409	0.77813774
21	0xbf5180da	-0.81837237
22	0x3e0d4e6e	0.1379945
23	0x3f14c076	0.5810617
24	0xbfa394b0	-1.2779751
25	0xbdff5c76	-0.124688074
26	0xbcc54882	-0.024082426
27	0x3f232d82	0.63741314
28	0x3daec931	0.08534468
29	0xbf9ae3b4	-1.210074
30	0xbf2aa35b	-0.6665551
31	0x3b27563d	0.002553358
32	0x3e33235e	0.1749396
33	0x3edc4d51	0.43027738
34	0xbf979619	-1.1842681
35	0xbfa5508b	-1.2915205
36	0xbf8cb909	-1.0993968
37	0x3ec41e1c	0.38304222
38	0x3ee16d21	0.4402857
39	0xbfc4a9c4	-1.5364308
40	0xbf53f020	-0.82788277
41	0x3f9d6f23	1.2299541
42	0xbebff4b6	-0.37491387
43	0x3e474995	0.19461663
44	0x3e972e05	0.29527298
45	0xbf53c3bf	-0.8272056
46	0xbfeab169	-1.8335391
47	0xbef35519	-0.47525862
48	0xbf8bbac6	-1.0916374
49	0xbf657e5a	-0.8964592
50	0xbe4e6a57	-0.20157753
51	0xbf71ebd1	-0.9450045
52	0xbf49c997	-0.78823227
53	0xbffd276d	-1.9777657
54	0xbd976f78	-0.07394308
55	0xbf890357	-1.0704144
56	0xbf4df413	-0.8045055
57	0xbf38236b	-0.71929044
58	0xbf42ada3	-0.760462
59	0x3dbfa984	0.093585044
60	0xbf4873cd	-0.783017
61	0xbeece24f	-0.4626641
62	0x3fb5cab8	1.420249
63	0xbf7685b4	-0.96297765
64	0x3eeb6612	0.4597631
65	0x3f18977a	0.59606135
66	0xbf9d8531	-1.2306272
67	0x3f1a1b8a	0.6019827
68	0xbf0fec9e	-0.56220424
69	0x3ea0be4b	0.31395182
70	0xbec1aad7	-0.37825653
71	0xbcdfe702	-0.027331833
72	0xbf0f12b8	-0.5588794
73	0xbfe66db0	-1.8002224
74	0xbfae6e7b	-1.3627466
75	0xbf9bda55	-1.2176005
76	0x3f40e6f3	0.753524
77	0xbec539cc	-0.38520658
78	0x3f063963	0.52431315
79	0x3ebdf8c5	0.3710386
80	0xbf1fdbbe	-0.62444675
81	0xbf96eb2f	-1.1790522
82	0xbdc35a0d	-0.0953866
83	0xbf454b1e	-0.77067745
84	0xbf4d5d4d	-0.8022049
85	0xbf7b747f	-0.98224634
86	0xbdddf822	-0.10838343
87	0x3dd5fa98	0.104481876
88	0xbf09c8a9	-0.5382181
89	0x3e7d8887	0.24759112
90	0x3e9cf2aa	0.30653888
91	0xbb0046b9	-0.0019573404
92	0x3ec1b96e	0.37836784
93	0x3ed63e70	0.4184451
94	0xbf485077	-0.7824778
95	0x3f8252db	1.0181535
96	0xbe8db2d0	-0.27675486
97	0xbf91c09a	-1.1386902
98	0xbf3b8994	-0.732568
99	0xbef531c8	-0.47889543
100	0x3bdf4569	0.0068136943
101	0xbe46184c	-0.19345206
102	0x3cbe1a3a	0.023205865
103	0x3f6efb2a	0.93351996
104	0xbf6ef05a	-0.933355
105	0x3f27df7b	0.6557538
106	0xbf2aebca	-0.66766036
107	0xbf503613	-0.8133251
108	0xbf784e56	-0.9699453
109	0xbd3afc15	-0.04565056
110	0x3f4c3131	0.7976256
111	0xbf54cd5e	-0.83125865
112	0xbf34f941	-0.7069283
113	0x3db2806f	0.08715903
114	0xbfa513ed	-1.2896706
115	0xbf12d998	-0.5736327
116	0x3f172224	0.5903647
117	0xbf1d714f	-0.6150102
118	0x3f8ecf7e	1.1157072
119	0xbff0c43e	-1.8809888
120	0xbfa42388	-1.2823343
121	0x3f1bf4b0	0.6092024
122	0x3f1c3ab8	0.610271
123	0xbf76b686	-0.9637226
124	0x3f39d5c6	0.7259182
125	0xbecec6df	-0.40386102
126	0xbef55dfd	-0.4792327
127	0x3e864e15	0.26231447
128	0xbfd3df4a	-1.6552517
129	0x3e371168	0.17877734
130	0xbe2b9243	-0.16755013
131	0xbf800510	-1.0001545
132	0x3e37c8c9	0.17947687
133	0xbe00cbc3	-0.12577729
134	0xbf46075c	-0.7735498
135	0xbeee760f	-0.46574447
136	0xbefe7e92	-0.4970594
137	0x3f05a97d	0.52211744
138	0xbf8c2f1b	-1.0951875
139	0xbf545da1	-0.82955366
140	0x3e95de03	0.29270944
141	0x3e11c5fe	0.14235684
142	0x3f37b890	0.71765995
143	0xbeb2997e	-0.3488273
144	0xbf658806	-0.8966068
145	0x3eed14a5	0.46304813
146	0xbdd6e1b2	-0.10492267
147	0x3e13e944	0.14444453
148	0xbfb0b864	-1.3806272
149	0x3eb8b640	0.36076546
150	0x3df2d255	0.11856524
151	0xbf51aa86	-0.81900823
152	0xbf2d668d	-0.67734605
153	0x3cd579fc	0.026059143
154	0xbf7c6970	-0.98598385
155	0xbfd708e1	-1.6799585
156	0xbfc8fc97	-1.5702084
157	0xbf34a7eb	-0.7056872
158	0xbf093868	-0.53601694
159	0xbfada74c	-1.356668
160	0xbf8a19cb	-1.0789121
161	0xbf0bc966	-0.54604185
162	0xbf1ae82a	-0.60510504
163	0xbfd6c6d3	-1.6779426
164	0xbfc7c04a	-1.5605557
165	0xbf03ed8e	-0.51534355
166	0xbf143cc6	-0.5790523
167	0xbe8df3e6	-0.27725142
168	0xbf7f1fe6	-0.9965805
169	0xbf5819f8	-0.84414625
170	0xc0105575	-2.255216
171	0x3e83bd77	0.25730488
172	0xbf5dbc9c	-0.8661592
173	0x3ee593e8	0.44839406
174	0xbef45c00	-0.4772644
175	0xbf24c9f4	-0.64370656
176	0xbf8a2298	-1.0791807
177	0x3e00dbfb	0.12583916
178	0x3e7a63ad	0.24452086
179	0xbf07a670	-0.5298834
180	0xc0076052	-2.115254
181	0xbe9674c3	-0.29385957
182	0xbf4f1ca7	-0.80903095
183	0xbefbf57d	-0.4921073
184	0x3f11f4f3	0.5701439
185	0xbf0e27ca	-0.55529463
186	0x3ef2145f	0.47281167
187	0xbf3bcab9	-0.73356205
188	0xbed98397	-0.42483208
189	0xbea60836	-0.3242814
190	0xbee71b4e	-0.4513802
191	0xbf4f22cc	-0.8091247
192	0xbfd7d58a	-1.6862042
193	0x3e9ee7fd	0.31036368
194	0xbf023a4b	-0.508702
195	0xbf431907	-0.76210064
196	0xbf90fbcc	-1.1326842
197	0xbd947c46	-0.07250266
198	0x3dc0a630	0.09406698
199	0xbf25456d	-0.6455906
200	0xbf9eb4c1	-1.2398912
201	0xbf6ff764	-0.93736863
202	0xbea253cc	-0.31704557
203	0x3ea16d3c	0.31528652
204	0xbf052996	-0.5201658
205	0xbed95b07	-0.4245226
206	0xbf83c461	-1.0294305
207	0x3f24005a	0.64063036
208	0xbe8fdf27	-0.2809994
209	0xbe59df01	-0.21276475
210	0x3e779c06	0.24180612
211	0xbd99588f	-0.07487594
212	0x3f29fc53	0.6640064
213	0xbf3c8b67	-0.7365021
214	0xbf64bd38	-0.89351225
215	0xbff78eaa	-1.9340413
216	0x3dde39ac	0.10850844
217	0xbf3857a2	-0.7200872
218	0xbe33e4b5	-0.17567714
219	0x3ed45c86	0.4147684
220	0xbe9a89f8	-0.30183387
221	0xbf26f94a	-0.65224135
222	0xc00c13e6	-2.1887145
223	0x3f84ece9	1.0384799
224	0x3ed8966e	0.4230227
225	0xbfe0724a	-1.7534878
226	0xbef33013	-0.47497615
227	0xbe9fdb0e	-0.31221813
228	0xbed81626	-0.42204398
229	0xbec73652	-0.3890863
230	0x3f2f19a4	0.683985
231	0xbefd3055	-0.49450937
232	0x3ea298d2	0.31757218
233	0x3f80187c	1.0007472
234	0xbf8b359e	-1.0875738
235	0x3d52746d	0.051380564
236	0xbfa339ce	-1.2752016
237	0x3e1fabc5	0.15592869
238	0x3d99ff97	0.07519453
239	0x3ede908c	0.43469656
240	0xbf2d9c9e	-0.67817104
241	0xbef6ef00	-0.48229218
242	0xbf783435	-0.9695466
243	0x3e8fa9ad	0.2805914
244	0xbf32ee75	-0.69895107
245	0x3e498e5d	0.19683214
246	0x3be95e4f	0.007121838
247	0xbf804d42	-1.0023577
248	0xbf708338	-0.93950224
249	0xbefe8ae9	-0.49715355
250	0xbf3c8766	-0.736441
251	0xbfbb568b	-1.4635786
252	0xbfabaffd	-1.3413082
253	0xbf2d47ad	-0.67687494
254	0xbe3a86d8	-0.18215501
255	0x3e37c1c6	0.17945012

fc1.weight f4 [256, 256]
0	0xbedd1bd5	-0.43185297
1	0x3e6e8c6c	0.23295754
2	0xbeffe1ef	-0.4997706
3	0x3ea7a34e	0.3274178
4	0x3ebbe5f2	0.36698872
5	0x3f07d0a9	0.53052765
6	0xbecbbddf	-0.39793298
7	0xbe160e44	-0.1465388
8	0xbd87761d	-0.06614325
9	0xbb9df671	-0.004820638
10	0xbe00fb15	-0.1259578
11	0x3d21c4ff	0.03949451
12	0x3dad647b	0.08466431
13	0xbeb0f89e	-0.3456468
14	0x3f12dd58	0.57368994
15	0xbedd0e08	-0.43174767
16	0x3e4b180c	0.19833392
17	0xbda5034f	-0.08057272
18	0x3e330fdb	0.17486517
19	0xbe8bbcb2	-0.272924
20	0x3e5c6398	0.21522367
21	0xbe89d130	-0.2691741
22	0xbfa2fdf3	-1.2733749
23	0x3e8144e2	0.25247866
24	0x3e9ff022	0.31237894
25	0xbe0499a9	-0.12949242
26	0xbde02e1a	-0.10946293
27	0xbe68c99e	-0.22733161
28	0xbedadc4e	-0.42746204
29	0x3f28e398	0.6597228
30	0xbdcfec1a	-0.10152455
31	0x3ea8448d	0.328648
32	0x3e46b2e6	0.19404182
33	0x3dd1412b	0.10217508
34	0xbeb0dcd4	-0.34543478
35	0x3f328086	0.6972736
36	0x3f6bebe5	0.9215682
37	0xbd02f7df	-0.03197467
38	0xbe99abb3	-0.3001381
39	0xbf006098	-0.5014739
40	0xbda677c7	-0.081283145
41	0x3d771fde	0.060333125
42	0xbee1c959	-0.4409893
43	0x3e8be9a1	0.27326682
44	0x3b2bb9b1	0.002620321
45	0x3e40cf60	0.18829107
46	0x3f4076c7	0.7518124
47	0xbe890b3f	-0.26766393
48	0x3e85b236	0.26112527
49	0xbc95887c	-0.018253557
50	0xbe546533	-0.2074173
51	0xbe7ed3b0	-0.2488544
52	0xbe040f54	-0.12896472
53	0x3af43700	0.0018632114
54	0xbebe9dbb	-0.37229714
55	0x3f8374e0	1.0270042
56	0x3f924caa	1.1429646
57	0x3e8a1a1d	0.26973048
58	0x3e8641d5	0.262221
59	0x3e9466c7	0.28984663
60	0xbe599a8d	-0.21250363
61	0x3e7b7f9c	0.24560398
62	0xbdc65a36	-0.09685175
63	0x3ed69143	0.419077
64	0x3c0fd49d	0.008778718
65	0xbf2acb0d	-0.6671608
66	0xbe0f40d4	-0.13989574
67	0x3e529523	0.20564704
68	0x3ec56421	0.38552955
69	0xbdad0a0f	-0.08449184
70	0xbe14f6d7	-0.14547287
71	0xbf0a7d5f	-0.5409755
72	0x3f120b8b	0.57048863
73	0xbf16f67c	-0.58969855
74	0xbece2a2e	-0.40266556
75	0xbf00733d	-0.5017584
76	0xbecd34a2	-0.40079218
77	0x3e5215e1	0.20516159
78	0x3d6c51f5	0.057695348
79	0xbc297d14	-0.010344762
80	0x3ecf09c0	0.40437126
81	0xbde06416	-0.1095659
82	0x3d02c816	0.031929098
83	0x3e40cb70	0.18827605
84	0xbe777fc4	-0.24169832
85	0xbf137d78	-0.57613325
86	0x3d78bada	0.06072507
87	0xbdc53d72	-0.096308604
88	0x3e224c80	0.15849495
89	0x3f15c62f	0.5850553
90	0x3da39568	0.07987481
91	0x3ec9df97	0.39428398
92	0xbec23437	-0.37930462
93	0x3e476e3c	0.19475645
94	0x3e8d650a	0.2761615
95	0x3d16476a	0.0366892
96	0xbc947463	-0.018121904
97	0x3e50b549	0.20381655
98	0xbe05a132	-0.13049772
99	0x3dc1791e	0.094469294
100	0x3ee8dc34	0.45480502
101	0x3df389a6	0.11891489
102	0xbd5b7df2	-0.053586908
103	0x3f387fb4	0.7206986
104	0x3ec72b6c	0.38900316
105	0xbe98ebe8	-0.29867482
106	0xbedd4a8f	-0.43220946
107	0xbe44b9ad	-0.19211455
108	0x3e482bf0	0.19548011
109	0x3f24e532	0.64412224
110	0x3eba6863	0.36407766
111	0x3e4935fd	0.19649501
112	0x3e0fe730	0.14053035
113	0x3dbc1a4f	0.091847055
114	0x3e40b2ca	0.18818203
115	0xbe4e4589	-0.20143713
116	0x3ed30492	0.41214424
117	0x3e839de2	0.25706393
118	0xbef9b2ce	-0.4876923
119	0xbe749c92	-0.23887852
120	0xbe27ae21	-0.16375019
121	0xbe83e992	-0.25764138
122	0x3d4af1ae	0.04954689
123	0x3e0e10f0	0.13873649
124	0x3ed08a18	0.40730357
125	0x3f15cb26	0.58513105
126	0xbe32e3ab	-0.17469661
127	0xbe2d6cc9	-0.1693603
128	0xbed65904	-0.4186479
129	0xbcd8a680	-0.02644658
130	0xbd78ddd0	-0.060758412
131	0xbe6b92f1	-0.23005272
132	0x3cb20080	0.021728754
133	0x3e23c7e4	0.15994221
134	0x3e0ebdad	0.13939543
135	0x3e0ce31c	0.1375851
136	0x3e07a598	0.13246763
137	0xbf1b7025	-0.60717994
138	0x3ec2d77d	0.3805503
139	0x3f456b3e	0.77116764
140	0xbdd49cb4	-0.10381451
141	0xbe5c863d	-0.21535583
142	0xbd6bb5c6	-0.0575464
143	0xbe253e8d	-0.16137142
144	0xbf056627	-0.52109
145	0xbec5a193	-0.38599834
146	0x3e295015	0.16534455
147	0x3e277c41	0.16355993
148	0x3e98ba99	0.29829863
149	0x3e54aa41	0.20768072
150	0xbdcc1eaa	-0.09966786
151	0x3f00ff43	0.503895
152	0x3f11baae	0.56925476
153	0x3d8842bf	0.06653356
154	0xbec00957	-0.37507126
155	0xbe1c1342	-0.15241721
156	0xbf176679	-0.59140736
157	0xbf286426	-0.65777814
158	0xbe06cd0c	-0.13164157
159	0x3f61e3d3	0.8823826
160	0xbcaab287	-0.020837082
161	0x3e02856b	0.12746207
162	0xbe6435b6	-0.22286114
163	0xbf503f06	-0.81346166
164	0xbdad37d4	-0.08457914
165	0x3d633323	0.05546869
166	0xbeca7357	-0.39541122
167	0x3e6d89d5	0.2319711
168	0xbf29a128	-0.6626153
169	0x3e46ef1e	0.19427153
170	0x3f1e20e0	0.61768913
171	0xbe65e75d	-0.2245154
172	0x3c124ae7	0.008928991
173	0x3f1176f6	0.56822145
174	0xbe859272	-0.2608829
175	0xbecfca05	-0.40583816
176	0x3f08ff4c	0.5351455
177	0x3ec4998b	0.38398394
178	0xbf021aab	-0.5082194
179	0xbd655cfb	-0.055996876
180	0x3f153f5f	0.5829982
181	0xbe318cd6	-0.17338881
182	0x3e3dce51	0.18535735
183	0x3c38b084	0.011272553
184	0x3d2571b4	0.04039164
185	0x3ed8b35a	0.42324334
186	0xbe1ad420	-0.15119982
187	0xbf59fda5	-0.85152656
188	0x3e6da930	0.23209071
189	0xbeb2bd0b	-0.34909853
190	0x3ddc5e03	0.10760119
191	0x3eeb8afb	0.4600447
192	0xbe21a6ea	-0.15786329
193	0x3e126f67	0.14300309
194	0xbe8b1ae2	-0.27168947
195	0x3e18f2b1	0.1493633
196	0x3e280b32	0.1641052
197	0x3ea3dc5c	0.32004058
198	0x3d8c6099	0.06854362
199	0xbf202a17	-0.62564224
200	0xbda0195f	-0.07817339
201	0xbf2b119c	-0.66823745
202	0xbe4148c7	-0.18875419
203	0x3e73816c	0.2377984
204	0xbe7d9ae3	-0.24766116
205	0x3e307607	0.17232524
206	0x3f06ea12	0.5270091
207	0x3f0556ca	0.52085555
208	0xbe9cf49d	-0.30655375
209	0xbea977af	-0.33099124
210	0xbf44ae71	-0.76828676
211	0xbec28626	-0.37992972
212	0x3c232639	0.009957843
213	0x3e847e49	0.25877598
214	0x3ebbeeba	0.3670557
215	0xbee483c4	-0.4463178
216	0x3ebdfb96	0.37106007
217	0x3c7c64c7	0.015404887
218	0x3dbecf41	0.09316874
219	0xbe3344ca	-0.1750671
220	0xbf188dd6	-0.59591424
221	0xbef9f3b4	-0.48818743
222	0xbf0ca8aa	-0.5494486
223	0xbdc2a190	-0.09503472
224	0xbe1103f7	-0.14161669
225	0xbe1a63aa	-0.15077081
226	0x3e34b681	0.17647745
227	0xbe803856	-0.2504298
228	0xbea878b9	-0.32904604
229	0x3eba4a3b	0.36384758
230	0x3ddd7dc1	0.10815001
231	0xbf32f827	-0.699099
232	0xbdb8e7b3	-0.09028568
233	0x3e51a0a4	0.20471436
234	0xbee9e5ac	-0.45683038
235	0xbd8e8312	-0.069585934
236	0x3ea449eb	0.32087645
237	0x3d970eb2	0.0737585
238	0x3ed76e7c	0.4207648
239	0xbee3fd0b	-0.44528994
240	0x3c90a222	0.017655436
241	0x3ee6bb58	0.45064807
242	0x3e98f0d7	0.29871246
243	0xbde43981	-0.111437805
244	0x3ef38bb1	0.47567514
245	0x3d0cf6dc	0.03441511
246	0xbd80e586	-0.06293778
247	0xbed762ef	-0.42067668
248	0x3f3225e4	0.69589067
249	0xbef45805	-0.47723404
250	0xbeb98400	-0.3623352
251	0xbec99a9d	-0.39375773
252	0xbf90a2ed	-1.1299721
253	0xbe77c8c3	-0.24197678
254	0xbd145da8	-0.03622213
255	0xbe067ddd	-0.1313395

fc1.bias f4 [256]
0	0x3f9425b6	1.1574008
1	0x3f4b4f53	0.79417914
2	0x3fd9e2ca	1.7022336
3	0xbdbc7bb7	-0.09203284
4	0xbed99987	-0.42499945
5	0x3ec8284f	0.39093253
6	0x3f17b04b	0.59253377
7	0xbf3ab728	-0.72935724
8	0x3f08c3f9	0.5342403
9	0x3f2f0204	0.6836245
10	0xbf8da7dd	-1.1066853
11	0x3ecc3cd3	0.39890155
12	0xbf24b3ff	-0.6433715
13	0x3f2a6f12	0.6657573
14	0xbeffa6a3	-0.4993182
15	0xbe21d47b	-0.15803711
16	0xbf5eef4e	-0.870839
17	0x3f349d0a	0.7055212
18	0x3f75fa9d	0.9608553
19	0xbf959702	-1.1686709
20	0xbf197760	-0.59947777
21	0xbf7c0457	-0.9844412
22	0xbf493eac	-0.78611255
23	0x3ee9a2ea	0.45632106
24	0xbf57dd8e	-0.8432244
25	0xbf7e7d8a	-0.9941031
26	0x3f242912	0.6412517
27	0xbf207dba	-0.62691844
28	0x3ee59c65	0.44845882
29	0x3e0fb9c7	0.14035712
30	0x3e969a2d	0.29414502
31	0xbf5650c1	-0.8371697
32	0xbf978100	-1.1836243
33	0xbf17d9c4	-0.5931666
34	0x3f776276	0.96634614
35	0xbebc6eae	-0.36803192
36	0x3f9c2fdd	1.2202107
37	0xbfbd4bce	-1.4788759
38	0xbf86f232	-1.0542662
39	0x3f763f49	0.96190315
40	0xbf657113	-0.8962566
41	0xbf56aa5e	-0.8385371
42	0xbf0a5884	-0.54041314
43	0xbe05c972	-0.13065127
44	0xbf316a8a	-0.6930319
45	0xbf6173c6	-0.8806728
46	0xbefb2987	-0.4905512
47	0x3f620a4b	0.88296956
48	0x3e288372	0.16456392
49	0xbee49f87	-0.4465296
50	0x3fea8ce7	1.832425
51	0xbdf19fbb	-0.11798044
52	0xbf94ea6d	-1.1634041
53	0xbd12a3f2	-0.03580088
54	0x3faab7ba	1.3337319
55	0x3ee36e72	0.444202
56	0xbf6f264e	-0.93417823
57	0x3fa07a49	1.2537318
58	0xbf8fd80d	-1.1237808
59	0xbf3b6dcf	-0.7321443
60	0xbf8e86a6	-1.1134841
61	0xbe876d75	-0.26450697
62	0x3f52e259	0.8237663
63	0xbf2e3610	-0.6805124
64	0xbd8983b0	-0.067145705
65	0xbf3bfde8	-0.73434305
66	0xbea0fd8f	-0.3144345
67	0x3f67ffb9	0.90624577
68	0x3f35172d	0.7073849
69	0xbeae41cd	-0.34034577
70	0xbfab19e4	-1.3367276
71	0x3f2b0ebb	0.6681935
72	0xbf93ba07	-1.1541146
73	0xbfa8367d	-1.3141629
74	0xbed50510	-0.41605425
75	0x3e029d95	0.12755425
76	0x3e3b3899	0.18283309
77	0x3bcdc77e	0.006279885
78	0xbf94ec20	-1.163456
79	0xbe44f5a8	-0.19234335
80	0xbfa8b10e	-1.3179033
81	0x3e92ca74	0.28670084
82	0x3dd5beea	0.104368046
83	0x3e9fad46	0.31186885
84	0xbe99f143	-0.3006688
85	0xbf32ade8	-0.6979661
86	0x3e520475	0.20509513
87	0x3f505f27	0.8139519
88	0x3ee241fa	0.4419096
89	0xbf97d185	-1.1860815
90	0x3f4e3d86	0.8056263
91	0x3edbedd1	0.42954877
92	0xbf20c1d9	-0.6279579
93	0x3f8f89bb	1.1213907
94	0x3f71a466	0.9439148
95	0x3fadb1c7	1.3569878
96	0xbf3e1841	-0.7425576
97	0x3f698e5e	0.9123286
98	0x400744a3	2.1135643
99	0x3f83a391	1.0284292
100	0x3e34c854	0.17654544
101	0xbf6b36c9	-0.9188047
102	0x3ef21663	0.47282705
103	0xbf2326e7	-0.63731235
104	0x3f38c5a8	0.721766
105	0xbf98e770	-1.1945629
106	0x3efd35ae	0.49455017
107	0xbf2e305a	-0.6804253
108	0xbe481b67	-0.19541703
109	0xbf8f5ef7	-1.1200856
110	0x3d3410a5	0.043961186
111	0x3fe0648b	1.7530683
112	0xbe9efabd	-0.31050673
113	0xbdc6a0c5	-0.09698633
114	0xbf61331c	-0.8796861
115	0x3e4de662	0.20107415
116	0xbd158065	-0.0364994
117	0x3f0abfea	0.5419909
118	0xbf0496a5	-0.51792365
119	0xbeee891e	-0.46588987
120	0xbf164f51	-0.5871478
121	0x3f853e79	1.040969
122	0x3f2a909a	0.66626894
123	0x3eb56fac	0.3543676
124	0xbec9c771	-0.39409974
125	0xbef2b242	-0.47401625
126	0xbf857cd3	-1.0428718
127	0x3c942b98	0.018087193
128	0xbd1ab8c2	-0.037773855
129	0x3fa1f1e7	1.2651948
130	0x3ea38d24	0.3194362
131	0xbf9d768f	-1.2301806
132	0x3f3e8cfa	0.74433863
133	0x3e84d43a	0.25943166
134	0xbf0bd4e6	-0.5462173
135	0xbf9019d9	-1.1257888
136	0xbcb4f5b7	-0.022089822
137	0x3f22ab0a	0.63542235
138	0xbf2acddf	-0.66720384
139	0x3e9d4e34	0.30723727
140	0x3f55786c	0.83386874
141	0xbe8026ef	-0.25029704
142	0xbe705f95	-0.23473962
143	0xbf4fbf18	-0.8115096
144	0xbf0f5648	-0.5599103
145	0xbf47aa70	-0.7799444
146	0xbf2fc03d	-0.6865271
147	0x3ef9a866	0.4876129
148	0xbf1127e4	-0.56701493
149	0x3e6889ea	0.2270886
150	0x3e691102	0.22760394
151	0xbf52d066	-0.8234924
152	0xbe9a7452	-0.3016687
153	0x3d29305b	0.04130588
154	0xbff8636e	-1.9405344
155	0xbf636a81	-0.8883439
156	0xbe9d1907	-0.30683157
157	0xbf398da8	-0.72481775
158	0x3f063348	0.52422
159	0xbf0324a7	-0.512278
160	0x3e3cb8cb	0.18429868
161	0x3ee2ca6e	0.44295067
162	0xbeab0548	-0.33402467
163	0xbf3c37ee	-0.7352284
164	0x3f8ece0c	1.115663
165	0xbf88f4d6	-1.0699718
166	0x3e970e3a	0.29503042
167	0xbfa13000	-1.2592773
168	0x3ffede72	1.9911635
169	0x3f17baae	0.59269226
170	0x3f47ec01	0.7809449
171	0xbed62bc4	-0.41830266
172	0xbfb82269	-1.4385501
173	0x3fa415d6	1.2819164
174	0xb96b117b	-0.00022417858
175	0xbe67b6b8	-0.22628295
176	0x3f4d8a95	0.80289584
177	0xbf97d3e5	-1.186154
178	0x3e582bdb	0.2111048
179	0xbfc60ec1	-1.5473253
180	0x3e0f49ea	0.1399304
181	0x3ed39646	0.41325587
182	0xbf944ddc	-1.1586261
183	0x3fab4b51	1.338236
184	0xbf1275c6	-0.5721096
185	0x3f956752	1.1672156
186	0xbe5d2f38	-0.21600044
187	0xbe355188	-0.17706883
188	0xbed4acd3	-0.41538104
189	0x3ea7342f	0.32657
190	0xbed71e94	-0.42015517
191	0xbf2dcf94	-0.67894864
192	0xbeb575f2	-0.35441548
193	0xbf9f640a	-1.2452404
194	0x3e68b79b	0.2272629
195	0xbf6cbcdf	-0.92475694
196	0x3f1009ab	0.5626475
197	0xbf292283	-0.66068286
198	0x3f858375	1.0430743
199	0xbe212eb8	-0.15740478
200	0x3f62851e	0.8848437
201	0xbf18c4a0	-0.59675026
202	0x3f3791ae	0.71706665
203	0xbf15eff4	-0.58569264
204	0x3f423c5e	0.75873363
205	0xbfbb60da	-1.4638932
206	0xbd8d5b4f	-0.06902181
207	0x3fc5a159	1.5439864
208	0xbf0e6725	-0.55626136
209	0x3f14a9ff	0.58071893
210	0x3ecab64a	0.395922
211	0xbf2da77a	-0.67833674
212	0x3f7c47cc	0.98547053
213	0xbf55ca4d	-0.8351181
214	0xbf3e70c5	-0.7439082
215	0xbf4399ab	-0.76406354
216	0xbf2873d8	-0.65801764
217	0x3f737cba	0.9511219
218	0xbf45ea1d	-0.77310354
219	0x3d310d4a	0.043225564
220	0x3f982183	1.1885227
221	0xbf780e17	-0.968965
222	0xbf2abacd	-0.66691285
223	0xbe8e91ba	-0.27845556
224	0xbea8ecf7	-0.3299329
225	0x3e246208	0.16053021
226	0xbf17d306	-0.5930637
227	0x3f6afe7d	0.9179457
228	0xbf23b69d	-0.6395052
229	0xbe14922f	-0.1450889
230	0xbf5c6584	-0.860924
231	0xbfe39040	-1.7778397
232	0xbf197852	-0.5994922
233	0x3f1f87d5	0.6231664
234	0xbfc7782d	-1.558355
235	0xbf924535	-1.142737
236	0x3d997dcb	0.07494696
237	0x3fa00ec6	1.2504508
238	0x3c882981	0.016621353
239	0xbf3acd32	-0.72969353
240	0x3e85bb6e	0.2611956
241	0x3f83d925	1.0300642
242	0x3e8d1ac2	0.27559477
243	0x3f8d33b5	1.1031405
244	0x3f161165	0.5862029
245	0xbf50a034	-0.8149445
246	0xbf7afb50	-0.9803972
247	0xbf40daba	-0.7533375
248	0xbf65012d	-0.8945492
249	0x3eea7b8a	0.45797378
250	0xbf76c23b	-0.9639012
251	0x3ea3c897	0.31988975
252	0xbf8ba910	-1.0910969
253	0xbf8ed4bb	-1.115867
254	0xbf5233fe	-0.82110584
255	0xbfa2ecb5	-1.2728487

last_fc.weight f4 [8, 256]
0	0x3da2d4ed	0.079507686
1	0xbd002703	-0.031287204
2	0xbe58d452	-0.21174744
3	0xbe08daba	-0.13364688
4	0x3dc5b9fa	0.09654613
5	0xbd51a326	-0.05118098
6	0x3ec0d2e2	0.3766089
7	0xbd7ae498	-0.06125316
8	0x3d9e1d57	0.0772044
9	0xbaa77faf	-0.0012779142
10	0x3d1317b4	0.035911277
11	0x3d4c103d	0.049820174
12	0xbc5f83c2	-0.013642253
13	0xbe84e080	-0.2595253
14	0xbe40df00	-0.18835068
15	0xbd48347f	-0.04887819
16	0xbdcd1c55	-0.100151695
17	0x3df95baf	0.121756904
18	0xbc1da159	-0.009620988
19	0x3e593ebc	0.21215338
20	0xbd7da7f5	-0.061927754
21	0xbe1b635f	-0.15174626
22	0x3da2005a	0.07910223
23	0xbd981660	-0.07426143
24	0xbd657fc2	-0.056030042
25	0x3cfdd98a	0.03098752
26	0x3dba0fca	0.09085043
27	0xbc8bc8fc	-0.01706361
28	0x3ce2056a	0.027590472
29	0x3d74d51b	0.059773546
30	0x3c5dd5e2	0.013539763
31	0xbcd63d4c	-0.026152276
32	0xbcc8e555	-0.024523417
33	0xbe356743	-0.17715172
34	0x3d906061	0.07049633
35	0xbcdcf57a	-0.026972521
36	0x3bc98e63	0.006151007
37	0x3c5ae4d0	0.013360217
38	0x3c46ad1a	0.012126232
39	0xbd5f52f9	-0.05452249
40	0xbb1312ec	-0.0022441698
41	0x3c6fe1ed	0.014641267
42	0xbe2d3be8	-0.16917384
43	0x3e3603ed	0.17774935
44	0xbda334be	-0.07969044
45	0xbd880575	-0.06641666
46	0xbd709caa	-0.058743156
47	0x3d8c3399	0.06845779
48	0xbe9e2dd5	-0.30894342
49	0x3e56cd06	0.20976648
50	0x3dcd2e2d	0.10018573
51	0xbd6059a0	-0.054772973
52	0xbe3bc473	-0.18336658
53	0x3e99bb65	0.30025783
54	0xbd202042	-0.039093263
55	0x3d00b081	0.031418327
56	0xbd2843ee	-0.041080408
57	0x3e100ba2	0.14066938
58	0xbe571c55	-0.21006902
59	0x3dcef973	0.101061724
60	0xbad1e7d8	-0.0016014529
61	0xbdcb3f79	-0.09924216
62	0x3b6cd4d7	0.0036137605
63	0xbd9cad48	-0.07650238
64	0x3d129fa1	0.035796765
65	0x3d49af67	0.049239542
66	0x3da5a2be	0.08087681
67	0x3c3ba5ac	0.0114530735
68	0x3e85fb2d	0.26168194
69	0xbd70bcb0	-0.058773696
70	0xbc53f260	-0.012936205
71	0x3cebb0b2	0.028770778
72	0xbe721c92	-0.23643711
73	0x3e92cd1d	0.28672114
74	0xbd9d533e	-0.07681893
75	0xbd008206	-0.031374
76	0x3d49d74b	0.049277585
77	0xbcbf073d	-0.023318881
78	0x3db6091a	0.08888455
79	0x3d7eab99	0.062175367
80	0xbd23bd18	-0.039975256
81	0xbd05c914	-0.032662466
82	0xbd4f9834	-0.05068226
83	0x3d30d0c7	0.043167856
84	0xbcec133c	-0.028817765
85	0xbc0362b6	-0.00801914
86	0xbdc016f2	-0.093793765
87	0xbd2413f3	-0.040058088
88	0xbdbbf499	-0.09177513
89	0xbd6c313c	-0.05766414
90	0xbdae72c2	-0.08517982
91	0x3de35d49	0.11101777
92	0x3dca0b03	0.098653816
93	0xbd2edb87	-0.042689826
94	0xbc07008d	-0.008239877
95	0x3d81ebf9	0.06343836
96	0x3ca759c7	0.020428551
97	0xbd7db386	-0.061938785
98	0xbd9a7c1a	-0.07543202
99	0x3d819ff9	0.063293405
100	0x3b8f7ef7	0.004379149
101	0x3de3fc10	0.111320615
102	0xbe7b94e5	-0.24568518
103	0xbdfcfab5	-0.12352506
104	0x3d0fd9a0	0.035119653
105	0x3cc2242a	0.023698885
106	0xbec5ef10	-0.38658953
107	0x3e0fc330	0.14039302
108	0xbdaeb1b4	-0.08529988
109	0x3d204741	0.039130453
110	0x3d0a2b41	0.033732656
111	0xbd9b4ac0	-0.07582617
112	0x3c9b13de	0.018930372
113	0x3d266589	0.040624175
114	0x3d09447e	0.033512585
115	0xbf0bfb17	-0.5468001
116	0x3d0d2823	0.034462105
117	0xbce7aec7	-0.028281583
118	0xbe6882bd	-0.22706123
119	0x3df36581	0.11884595
120	0xbdbef7cf	-0.093246095
121	0xbd8eda50	-0.069752336
122	0xbcf4384e	-0.029812004
123	0x3cf30eab	0.02967008
124	0x3da8573b	0.08219763
125	0xbe477690	-0.19478822
126	0xbc92f8fc	-0.01794099
127	0xbb778c21	-0.0037772732
128	0xbd76b881	-0.06023455
129	0xbd27d55b	-0.040974956
130	0x3d9bca29	0.07606918
131	0xbe2de590	-0.16982102
132	0xbc949fa1	-0.018142523
133	0x3d19cd55	0.037549336
134	0xbe7c089c	-0.24612659
135	0xbdae3474	-0.085060984
136	0x3e92072e	0.28521103
137	0x3d2de4df	0.042454597
138	0x3cef228a	0.029191274
139	0x3f00ea9f	0.50358003
140	0x3e266cec	0.16252488
141	0xbe0fb417	-0.14033543
142	0xbc7a3e5e	-0.015273659
143	0xbe8513e4	-0.25991738
144	0x3d5c6a0b	0.053812068
145	0x3d858d45	0.06521086
146	0x3ea48334	0.3213135
147	0x3ddb5b3a	0.107107595
148	0x3e2835e2	0.16426805
149	0x3c9a4018	0.01882939
150	0xbd49836a	-0.04919759
151	0x3ce552db	0.02799361
152	0xbc9bf64a	-0.019038338
153	0x3bf08836	0.0073404564
154	0xbd14659f	-0.036229726
155	0x3dfaaf75	0.12240497
156	0xbd24df48	-0.040252
157	0x3c3674ad	0.011136216
158	0x3dc9c2d9	0.09851617
159	0xbd6c948e	-0.05775886
160	0xbf1028e2	-0.5631238
161	0x3dc9c269	0.09851534
162	0x3da7e561	0.081980474
163	0x3e93487b	0.28766236
164	0x3d732129	0.059357796
165	0xbdf166f1	-0.11787213
166	0xbc20e594	-0.009820361
167	0xbdbe824e	-0.093021974
168	0xbc84b003	-0.01619721
169	0x3e25b3b8	0.16181839
170	0xbcac045c	-0.020998172
171	0xbc1646f6	-0.009172192
172	0x3e49e768	0.1971718
173	0xbe46bad0	-0.19407201
174	0xbd8f08a9	-0.06984074
175	0x3ce327ee	0.027729
176	0xbd33e884	-0.043922916
177	0xbd2d336d	-0.04228537
178	0xbe34b661	-0.17647697
179	0x3d8c7e91	0.06860078
180	0xbdc06dcc	-0.09395942
181	0xbd254a09	-0.04035381
182	0xbb1cfa3c	-0.0023952862
183	0xbe7df471	-0.24800278
184	0x3e54f9a1	0.20798351
185	0x3da0a7b2	0.07844485
186	0xbf440f14	-0.7658551
187	0x3c03edd5	0.008052309
188	0x3e6f68a9	0.23379768
189	0xba6cda54	-0.0009035219
190	0x3d79b63b	0.060964804
191	0xbd532e58	-0.05155787
192	0x3b7a9d86	0.0038240864
193	0xbe8ae8ce	-0.2713074
194	0xbd394c6d	-0.0452389
195	0x3d329180	0.04359579
196	0x3dd46ae9	0.10371954
197	0x3d9ce16a	0.07660182
198	0x3e7db428	0.24775755
199	0xbd19338d	-0.03740268
200	0x3d3735a0	0.044728875
201	0xbc2ebf82	-0.010665776
202	0x3db9108c	0.09036359
203	0x3e00ea8e	0.12589476
204	0x3c39ef92	0.011348622
205	0xbb8479e1	-0.0040428494
206	0xbd950ebf	-0.07278203
207	0x3d0334b4	0.032032683
208	0x3d3dc30b	0.046328586
209	0xbdfbd4ee	-0.122964725
210	0x3d49fc98	0.049313158
211	0xba30048f	-0.00067145465
212	0xbcd88072	-0.026428435
213	0xbdb69750	-0.08915579
214	0xbc4b21d4	-0.012398202
215	0x3dcedb2f	0.101004
216	0xbde661da	-0.112491325
217	0xbd1211f0	-0.035661638
218	0x3d5437fe	0.05181121
219	0xbce4d60b	-0.027934095
220	0x3d44c0a9	0.048035298
221	0x3cee24db	0.029070308
222	0x3b53da5e	0.0032326202
223	0xbd2c749c	-0.042103395
224	0xbd626f0f	-0.055281695
225	0xbc6a159d	-0.01428738
226	0xbd93dd24	-0.072199136
227	0x3d27b2fb	0.040942173
228	0xbe626c7b	-0.22111695
229	0xbe96b8f3	-0.2943798
230	0xbd97facd	-0.07420883
231	0x3d73f094	0.059555605
232	0xbde576e5	-0.11204318
233	0xbcc2a7f6	-0.02376173
234	0x3da15caf	0.07879006
235	0xbdd137da	-0.10215731
236	0xbc7005d4	-0.014649827
237	0x3d34f181	0.04417563
238	0xbb217b27	-0.0024640055
239	0x3d97f191	0.07419122
240	0xbcd8b6c6	-0.02645434
241	0xbe450aec	-0.19242448
242	0x3c843f63	0.016143506
243	0xbda30c45	-0.079613246
244	0xbcd1539b	-0.025552562
245	0xbd078579	-0.033086274
246	0x3e7f6c00	0.24943542
247	0x3b5268a8	0.0032105837
248	0x3d93e670	0.07221687
249	0x3c569537	0.013097099
250	0x3e44f114	0.19232589
251	0x3d095cec	0.033535883
252	0xbbf8f280	-0.0075972676
253	0x3e86c85f	0.26324746
254	0xbf1a3be2	-0.60247624
255	0xbd0b366b	-0.033987444

last_fc.bias f4 [8]
0	0x3e393396	0.18086085
1	0xbed0267f	-0.4065437
2	0x3e7e2408	0.24818432
3	0xbf127d86	-0.57222784
4	0xbdb11ccc	-0.08648071
5	0x3f0666c6	0.5250057
6	0x3e88c9a7	0.2671635
7	0x3f5c0b6a	0.85954916

last_fc_log_std.weight f4 [8, 256]
0	0x3cd57a2f	0.026059238
1	0xbc93715f	-0.017998395
2	0x3baf4ef2	0.005349987
3	0x3cdd91bf	0.027047036
4	0x3c4f0c0b	0.012637149
5	0x3be8087c	0.0070810895
6	0x3dbbb1d1	0.09164775
7	0x3a1af3fe	0.00059109915
8	0x3c98a7f0	0.018634766
9	0x3ad6665a	0.0016357407
10	0xbc48678b	-0.012231718
11	0x3c55a3aa	0.013039509
12	0xba47276b	-0.00075971213
13	0x3e0b048b	0.13575952
14	0x3db0ab37	0.08626407
15	0xbb94ac1a	-0.0045371177
16	0xbc1f5ab2	-0.009726213
17	0x3d80894d	0.06276188
18	0x3c1604a4	0.00915638
19	0x3de01841	0.10942126
20	0xbba43481	-0.0050111418
21	0xbc8a3bb5	-0.016874174
22	0xbbca27b3	-0.0061692833
23	0x3c89b4bf	0.01680982
24	0xbbd26870	-0.0064211413
25	0x3c8b02b9	0.016969072
26	0xbc78a8a9	-0.01517693
27	0xbcc6a6b4	-0.024249412
28	0xbcde9a51	-0.027173193
29	0x3c5f89d4	0.013643701
30	0x3c41a5a5	0.011819278
31	0xbbaeb6c2	-0.005331845
32	0x3a757393	0.000936323
33	0x3d03db58	0.032191604
34	0xbd24260a	-0.04007534
35	0x3c8ee62f	0.017443744
36	0x3c48cce9	0.012255886
37	0x3c488019	0.012237572
38	0xbb04c2cd	-0.0020257712
39	0x3cce54c5	0.025186906
40	0x3b12649e	0.0022337805
41	0xbc044b90	-0.008074656
42	0xbd82d6d8	-0.063886344
43	0x3de63b88	0.112418234
44	0xbc67df5c	-0.014152374
45	0x3d030572	0.031987615
46	0xbc69ee61	-0.014278025
47	0xbba97fbb	-0.0051726974
48	0x3e152ac6	0.14567098
49	0x3cc05a90	0.023480684
50	0x3ca25cc1	0.01981962
51	0x3b95b6f2	0.004568928
52	0x3cda82fe	0.02667379
53	0xbd231cb0	-0.03982228
54	0x3c9fd9ca	0.01951303
55	0x3b4a1420	0.003083475
56	0xbd2b6ed2	-0.041853733
57	0x3bf63421	0.0075135385
58	0x3d87d62d	0.06632648
59	0x3b804a2a	0.003915091
60	0x3c805399	0.015664862
61	0x3ba2c396	0.0049671633
62	0xbc2e20ab	-0.010627906
63	0xbcb88679	-0.022525059
64	0xbbb4d63b	-0.0055187023
65	0x3b657e4d	0.0035017908
66	0xbcba00a1	-0.022705378
67	0x3c26d699	0.010183
68	0x3db97776	0.090559885
69	0x3ce5eab9	0.028066026
70	0x3d49e979	0.049294923
71	0x3ca8ee75	0.020621518
72	0x3d6b848f	0.057499465
73	0xbd9cea9d	-0.076619364
74	0x3ca84644	0.020541318
75	0x3b1448d7	0.0022626424
76	0x3c2c0bb9	0.010500842
77	0x3b7a66d6	0.0038208268
78	0xbbe246ae	-0.0069053983
79	0x39e95ef2	0.00044511963
80	0xbbae5c94	-0.0053210948
81	0xbb20a36a	-0.0024511465
82	0x3badedfe	0.005307912
83	0xbbffb6a3	-0.0078037544
84	0xbb86dab4	-0.004115427
85	0x3ce0a42e	0.027422037
86	0xbb98a3fe	-0.0046582213
87	0x3d2e13a4	0.0424992
88	0x3cbd3dfc	0.023100846
89	0xbd7a6b15	-0.061137278
90	0x3b8399ee	0.0040161526
91	0xbce89197	-0.028389735
92	0x3c89bb98	0.016813084
93	0x3d0e4f6e	0.03474372
94	0x3bc33fbd	0.005958526
95	0xbc510eb9	-0.012759858
96	0x3aa96b7e	0.0012925712
97	0x3cd5b452	0.02608696
98	0x3c610506	0.013734108
99	0xbc04a197	-0.008095167
100	0xbbdb5d4d	-0.006694472
101	0xbcac6e5d	-0.021048719
102	0x3d160ca1	0.036633138
103	0xbdad0c48	-0.08449608
104	0x3d8576bf	0.0651679
105	0xbd865103	-0.065584205
106	0x3b127bd9	0.002235165
107	0x3e13eec5	0.14446552
108	0xbc99f199	-0.01879196
109	0x3c345bad	0.011008185
110	0x3bf54f2b	0.007486244
111	0xbc34bfef	-0.011032089
112	0xbd0ec256	-0.034853302
113	0x39ee7ccb	0.00045487875
114	0xbce05b79	-0.027387368
115	0x3e52c618	0.2058338
116	0xbbab77b8	-0.0052327774
117	0x3c2a7c3e	0.010405598
118	0x3da49adc	0.080373496
119	0xbb10609f	-0.0022030247
120	0xbd2e606d	-0.042572428
121	0x3cb58406	0.02215768
122	0xbc3c7c1e	-0.011504201
123	0xbc9c1a48	-0.0190555
124	0xbc613097	-0.013744495
125	0x3d6876cb	0.056753915
126	0xbc89a708	-0.01680328
127	0x3b90d5f8	0.0044200383
128	0xbc47e48f	-0.012200489
129	0x3bc60243	0.00604275
130	0xbbcfc59b	-0.006340695
131	0x3d024222	0.03180135
132	0x3b76ae21	0.003764041
133	0xbc169ba6	-0.009192383
134	0xbd1d19e2	-0.038354762
135	0x3c0dbc1a	0.008650804
136	0x3dd2bdf9	0.10290141
137	0x3ca9bd63	0.02072019
138	0xbbfab803	-0.0076513304
139	0xbc085348	-0.008320637
140	0x3cd85469	0.026407437
141	0xbb0055f8	-0.0019582491
142	0xbc34bf96	-0.011032006
143	0xbcd74207	-0.026276601
144	0x3c259101	0.010105372
145	0xbc84d4ad	-0.016214693
146	0xbe1655a3	-0.14681105
147	0xbd057965	-0.032586474
148	0x3dad04db	0.08448192
149	0x3be0be35	0.006858612
150	0xbc3e2bd4	-0.011607129
151	0xbceedb4a	-0.0291573
152	0xbc1af229	-0.00945715
153	0xbce9144b	-0.02845206
154	0xbc9fba75	-0.01949809
155	0xbd079429	-0.03310028
156	0x3ca4c4d1	0.02011338
157	0xbc01401e	-0.007888822
158	0x3c89115d	0.016731912
159	0xbc730ba4	-0.014834318
160	0x3ba2b67b	0.004965601
161	0x3d90cb94	0.070700794
162	0xb9b5e95f	-0.00034696885
163	0x3c1eef03	0.0097005395
164	0x39076611	0.00012912626
165	0xbb08a9c2	-0.0020853137
166	0xbd0980d8	-0.03357014
167	0xbcdc1192	-0.026863847
168	0xbc2f1b78	-0.010687701
169	0xbc282e78	-0.010264985
170	0x3be05640	0.0068462193
171	0x3cc3a907	0.02388431
172	0x3d4c3edb	0.04986463
173	0x3c5b5394	0.013386626
174	0xba6269bd	-0.0008636972
175	0xbbcb59e3	-0.0062057837
176	0xbc11ad8d	-0.008891475
177	0x3d69373a	0.056937434
178	0x3ccce085	0.025009403
179	0xbc774f5c	-0.015094604
180	0x3ca6a10a	0.020340461
181	0xbc4bc5b8	-0.012437277
182	0xbc035770	-0.008016452
183	0x3d90a4fb	0.070627175
184	0xbd08c472	-0.03339047
185	0x39a8b2da	0.00032176712
186	0x3e098f4f	0.13433574
187	0x3b071051	0.002060909
188	0x3cb5d970	0.022198409
189	0x3c3fd195	0.011707683
190	0x3c1cea0a	0.009577284
191	0x3ca79d12	0.02046064
192	0xbc277e64	-0.010223005
193	0xbcb33371	-0.021875115
194	0xba5a565b	-0.0008328908
195	0xbc0759bc	-0.00826114
196	0x3cb78ad7	0.022405071
197	0xbd65a147	-0.05606201
198	0x3d9d6922	0.07686068
199	0xbcadfb4b	-0.02123799
200	0x3d325b67	0.0435442
201	0x3b51f4a1	0.003203668
202	0xbc3795fd	-0.011205194
203	0x3d2372cc	0.0399044
204	0xbac76eec	-0.0015215552
205	0x3c56230e	0.013069881
206	0xbce1e828	-0.027576521
207	0x3c14abaa	0.009074131
208	0xbc426e80	-0.011867166
209	0x3c6f3518	0.014600061
210	0xbc898c3a	-0.016790498
211	0x3bdca16b	0.0067331097
212	0xbab5cd80	-0.0013870448
213	0xbb89ddcf	-0.00420735
214	0x3c042583	0.008065584
215	0xbc942a26	-0.018086504
216	0x3d65919d	0.05604707
217	0x3c7d6878	0.015466802
218	0x3c88606d	0.016647542
219	0xbc7a1337	-0.01526337
220	0x3bf7dae0	0.0075639337
221	0xbc9e159b	-0.019297412
222	0x3be89f9c	0.007099105
223	0x3b65f74f	0.0035090034
224	0x3c3c1043	0.0114784865
225	0xbca44a20	-0.020054877
226	0x3d278b14	0.04090412
227	0xbcf9b22b	-0.030480465
228	0x3d414a21	0.047189835
229	0x3dabf622	0.083965555
230	0x39fb1dd0	0.00047896663
231	0xbb8fc72f	-0.004387758
232	0x3cc774b0	0.024347633
233	0xbbc0913b	-0.005876688
234	0xbccb3125	-0.024803707
235	0x3cb08f39	0.021552669
236	0x3c067fab	0.008209149
237	0x3cdb37db	0.026760032
238	0x3cac4ecb	0.021033665
239	0xbc176b25	-0.009241854
240	0xbb0fcd4f	-0.0021942442
241	0x3d303b1d	0.043025125
242	0xbcc94f85	-0.02457405
243	0x3ce5d54f	0.028055815
244	0x3c402781	0.011728168
245	0xbcecaa50	-0.028889805
246	0xbd88c734	-0.0667862
247	0xbbcc6250	-0.0062373057
248	0xbc085e48	-0.00832326
249	0xbc66faa3	-0.014097842
250	0xbdf38db3	-0.11892261
251	0x3ba63953	0.0050727515
252	0xbc341c09	-0.010993012
253	0x3d703b95	0.05865057
254	0x3e80c5fc	0.2515105
255	0x3c50fc52	0.01275547

last_fc_log_std.bias f4 [8]
0	0xbfdffdee	-1.7499368
1	0xbfd701d2	-1.679743
2	0xbfc9400b	-1.5722669
3	0xbfc55adc	-1.5418353
4	0xbfbffa12	-1.499819
5	0xbfc03895	-1.5017267
6	0xbfb64cfd	-1.4242245
7	0xbfb7ee74	-1.4369645
